data.pth (torch, 6231 bytes, 6 tensors)

l1.weight f4 [8, 76]
0.0311282 -0.25080514 -0.63350415 -0.51392096 0.10605961 -0.044014286 0.7842516 -0.33540568
0.18026346 -0.63145775 -0.3665507 -0.47851795 0.58580005 0.27319092 -0.5096647 0.43094298
0.22099316 0.49787927 -0.2816962 0.30151975 0.31645533 0.81605655 0.46221876 -0.1661507
-0.04168631 0.12312242 -0.15271018 -0.17954615 0.10592346 0.19873662 0.27450618 -0.08019594
0.44484487 -0.4299639 0.3770065 -0.38119277 0.61290365 -0.21773659 0.48752093 0.21447456
-0.35652483 -0.427944 -0.13558656 0.31307855 0.37142235 0.5327718 0.25152698 -0.7555067
-0.4297044 -0.16326872 -0.23807153 0.21542898 0.5465834 0.5378923 0.39083034 0.4960753
-0.39843816 0.45102903 0.048532397 -0.08601851 0.53105766 0.25851572 -0.15619 0.053694855
0.5070266 0.30454615 0.44312128 0.32715324 0.8969685 0.37402922 0.31102687 0.3650586
-0.48393372 -0.3636556 -0.0612701 -0.58814454 -0.24892494 -0.5027077 -0.2731867 0.6195928
0.10899703 0.3202206 0.8594697 -0.1263922 0.26486754 0.0052457196 -0.59341574 -0.13296477
-0.07636753 0.76370215 0.82462525 -0.31884173 0.37215737 -0.39783674 -0.3149575 -0.12328017
0.2285376 0.7822014 0.5703179 -0.28769764 0.2667955 -0.24985336 0.24678537 0.3220993
0.5051811 -0.3080928 0.27043983 -0.11037613 0.59838754 -0.55746865 0.5393219 -0.41939175
0.6784971 -0.2833825 -0.3966927 0.028858041 0.67848796 -0.36114547 -0.032479804 -0.30478966
-0.5221268 0.484064 0.3957925 1.0010209 -0.4843117 0.02753312 -0.17307712 0.47200558
0.4811949 0.7511311 -0.31882176 0.21333788 -0.37192827 0.08780859 -0.2927398 -0.1815054
-0.061204005 0.4465504 -0.900889 -0.40187863 -0.5563648 0.35253933 0.051499706 0.36959717
-0.63290536 0.5991145 -0.21791567 0.4941097 0.63933885 -0.030000536 0.20648998 0.4636344
-0.29182675 0.30799097 0.41532466 0.46382087 0.40446714 0.67243534 -0.7237408 0.5092809
0.20827332 0.33928436 0.36177012 0.42806533 -0.27466515 -0.35840806 -0.0832799 0.6816313
0.4250162 0.6721059 0.37299383 0.5492189 1.0144662 -0.72364134 0.019856224 0.67541206
0.8960085 -0.2123864 0.7102647 0.80241334 0.6473918 0.56693465 0.07590798 0.40985122
-0.13844435 0.061058242 -0.22925061 -0.47683123 -0.47829828 0.69943494 0.6622946 -0.022150602
0.39808726 0.5432539 0.33015114 0.4686035 0.36401397 0.006327185 -0.02723306 0.20552553
0.46171862 0.28294396 0.32977694 -0.005038584 -0.5794417 -0.31999525 0.6149902 0.41066515
0.422884 0.29860315 0.52612793 0.38194838 -0.24030495 0.074951336 -0.7301207 -0.21164939
-0.225719 0.35600796 -0.2896361 -0.031366244 -0.44019476 -0.17741449 0.4825455 0.09723135
0.36064264 0.48330668 0.3760778 0.35614082 0.72075385 0.40608695 0.13491349 -0.192688
-0.15254074 -0.45677388 0.679622 0.1753105 -0.32218924 0.049317576 0.38842162 0.0058019413
0.35888368 -0.46518677 -0.77343297 0.45027822 0.1308929 0.356001 -0.3748548 0.21188289
-0.18377385 0.6397917 -0.15742058 0.39142838 -0.4977042 0.639282 -0.45630988 -0.46304634
00000000: 9100 ff3c 8869 80be 542d 22bf 5390 03bf
00000010: c835 d93d 5348 34bd b6c4 483f 4bba abbe
00000020: fc96 383e 37a7 21bf 89ac bbbe 4e00 f5be
00000030: fef6 153f aedf 8b3e 6379 02bf 8fa4 dc3e
00000040: 084c 623e 08ea fe3e 7c3a 90be cc60 9a3e
00000050: 6f06 a23e 15e9 503f f0a7 ec3e 6923 2abe
00000060: 44bf 2abd 9b27 fc3d 0f60 1cbe f2da 37be
00000070: 66ee d83d 9d81 4b3e 138c 8c3e c53d a4bd
00000080: b5c2 e33e 3a24 dcbe ff06 c13e b32b c3be
00000090: 41e7 1c3f 57f6 5ebe 589c f93e 389f 5b3e
000000a0: 6c8a b6be 7a1b dbbe 34d7 0abe d54b a03e
000000b0: 122b be3e bc63 083f 25c8 803e e368 41bf
000000c0: 3702 dcbe ea2f 27be 06c9 73be 6a99 5c3e
000000d0: e4ec 0b3f 4fb3 093f ea1a c83e 95fd fd3e
000000e0: 1600 ccbe 47ed e63e e8c9 463d 792a b0bd
000000f0: 65f3 073f 2c5c 843e 45f0 1fbe 23ef 5b3d
00000100: 7fcc 013f 79ed 9b3e cbe0 e23e a180 a73e
00000110: ba9f 653f c280 bf3e ea3e 9f3e f6e8 ba3e
00000120: 29c6 f7be 1131 babe 5bf6 7abd a490 16bf
00000130: 2ee6 7ebe 74b1 00bf 21df 8bbe a29d 1e3f
00000140: d639 df3d f4f3 a33e 3506 5c3f f56c 01be
00000150: b89c 873e 49e4 ab3b 18ea 17bf eb27 08be
00000160: 9466 9cbd fc81 433f a41a 533f 393f a3be
00000170: 698b be3e 42b1 cbbe 1c42 a1be 507a fcbd
00000180: c305 6a3e 5a3e 483f 5b00 123f 1b4d 93be
00000190: 6b99 883e 8fd9 7fbe 4eb5 7c3e 33ea a43e
000001a0: 8c53 013f 57be 9dbe 1777 8a3e e10c e2bd
000001b0: ed2f 193f 44b6 0ebf 0011 0a3f 84ba d6be
000001c0: fcb1 2d3f 8317 91be 4e1b cbbe b367 ec3c
000001d0: 63b1 2d3f 0fe8 b8be 8b09 05bd 640d 9cbe
000001e0: 1aaa 05bf 3dd7 f73e 51a5 ca3e 7421 803f
000001f0: b4f7 f7be 238d e13c 213b 31be b7aa f13e
00000200: 2e5f f63e 214a 403f 9b3c a3be 3f75 5a3e
00000210: 626d bebe fdd4 b33d fee1 95be 8ddc 39be
00000220: 0db1 7abd 41a2 e43e a9a0 66bf 09c3 cdbe
00000230: ec6d 0ebf 0980 b43e 5bf1 523d d73b bd3e
00000240: 1606 22bf 915f 193f 4925 5fbe f2fb fc3e
00000250: b6ab 233f afc3 f5bc 1c72 533e 7d61 ed3e
00000260: 516a 95be feb0 9d3e 6fa5 d43e ee79 ed3e
00000270: 5116 cf3e b924 2c3f 1447 39bf 3c60 023f
00000280: 9a45 553e aeb6 ad3e ef39 b93e 612b db3e
00000290: e9a0 8cbe 4381 b7be a78e aabd 647f 2e3f
000002a0: b99b d93e 220f 2c3f 0cf9 be3e 9c99 0c3f
000002b0: 07da 813f 8f40 39bf 85a9 a23c cee7 2c3f
000002c0: d060 653f d27b 59be e8d3 353f f66a 4d3f
000002d0: 78bb 253f a122 113f a575 9b3d 05d8 d13e
000002e0: 5bc4 0dbe 3518 7a3d acc0 6abe 3923 f4be
000002f0: 83e3 f4be 2b0e 333f 248c 293f 2e75 b5bc
00000300: 18d2 cb3e b012 0b3f 9209 a93e ccec ef3e
00000310: 0a60 ba3e 4654 cf3b de17 dfbc 4975 523e
00000320: 6266 ec3e 08de 903e 86d8 a83e b51a a5bb
00000330: 4b56 14bf 6bd6 a3be ff6f 1d3f b442 d23e
00000340: 4084 d83e 83e2 983e 52b0 063f bd8e c33e
00000350: 8012 76be 1680 993d 31e9 3abf 9eba 58be
00000360: e222 67be ad46 b63e 2f4b 94be e479 00bd
00000370: 3561 e1be 25ac 35be 3410 f73e 3b21 c73d
00000380: 27a6 b83e f973 f73e 458d c03e 1758 b63e
00000390: 5383 383f a1ea cf3e c326 0a3e 0150 45be
000003a0: a433 1cbe 44de e9be b5fb 2d3f 9984 333e
000003b0: fdf5 a4be 3a01 4a3d 33df c63e 361e be3b
000003c0: 9abf b73e f62c eebe b4ff 45bf de8a e63e
000003d0: ca08 063e c345 b63e f8ec bfbe d4f7 583e
000003e0: 362f 3cbe 64c9 233f dc32 21be 4d69 c83e
000003f0: 16d3 febe fca7 233f 73a1 e9be 6914 edbe

l1.bias f4 [8]
0.90164626 0.9008206 0.7236681 0.7734557 0.6776046 0.8514526 -0.114402205 1.0899974
00000000: 4ad2 663f 2e9c 663f 5042 393f 3101 463f
00000010: 7f77 2d3f ccf8 593f b44b eabd 0985 8b3f

l2.weight f4 [8, 8]
0.41478 -0.98491895 0.59997064 1.2071302 1.3428109 1.6566453 0.26221773 -0.5535963
0.68205774 1.5138773 -0.42183635 -1.0646207 0.40949845 0.704003 0.20900282 0.73452055
-0.9598368 0.8459294 1.2255859 0.13737896 1.456002 -0.8652517 -0.20619144 0.023706783
-0.90936995 -0.08171769 1.6361334 -0.5785078 -0.15574224 0.05845981 -0.13178186 1.2749965
0.76431745 -1.0985407 0.16203924 1.2665269 -1.1867129 1.2282922 -0.25925678 1.549051
0.28517708 0.67404526 0.23991056 -1.495772 0.76923126 0.7525509 -0.08308387 1.1281224
1.2237684 0.5030542 1.0350142 -0.056370344 0.64265805 1.1871982 0.22430715 -1.2085282
1.4551471 0.6404529 -0.5944281 1.6592017 -0.7064768 -0.870136 0.154295 0.6031794
00000000: 0b5e d43e a623 7cbf ad97 193f 3e83 9a3f
00000010: 3ae1 ab3f f40c d43f 6741 863e 7db8 0dbf
00000020: 569b 2e3f bbc6 c13f effa d7be 7e45 88bf
00000030: c8a9 d13e 8a39 343f d604 563e 8a09 3c3f
00000040: ddb7 75bf d48e 583f 00e0 9c3f 12ad 0c3e
00000050: 465e ba3f 2381 5dbf d923 53be ba34 c23c
00000060: 78cc 68bf 9b5b a7bd d26c d13f 1619 14bf
00000070: e57a 1fbe 8e73 6f3d d3f1 06be 1633 a33f
00000080: 4faa 433f fb9c 8cbf 9ded 253e 8e1d a23f
00000090: 35e6 97bf ae38 9d3f 4ebd 84be 4e47 c63f
000000a0: bb02 923e 3b8e 2c3f 1dab 753e 7575 bfbf
000000b0: 57ec 443f 2da7 403f e027 aabd 5166 903f
000000c0: 71a4 9c3f 29c8 003f 587b 843f 97e4 66bd
000000d0: 3d85 243f 1cf6 973f c6b0 653e 0db1 9abf
000000e0: 4342 ba3f b9f4 233f 712c 18bf b960 d43f
000000f0: aadb 34bf 3cc1 5ebf 82ff 1d3e f769 1a3f

l2.bias f4 [8]
0.6504872 0.4797558 0.2925889 0.4506728 0.69880605 0.14043587 0.039377004 0.7584087
00000000: 5486 263f 8da2 f53e 36ce 953e 96be e63e
00000010: f4e4 323f 6cce 0f3e c849 213d 1327 423f

l3.weight f4 [13, 8]
-1.9672633 0.7095317 -0.65872824 0.28849033 0.09987685 0.54125047 -1.6496744 0.00784653
0.08804047 -1.2625748 -1.4295931 -0.49881724 0.22057952 -0.80432373 0.7589746 -0.198796
-0.22937338 -0.2438242 -1.5725256 0.8972189 0.5857033 0.2102108 -1.5517691 -1.3886402
-1.1849737 0.6838461 -1.9654022 -1.1157007 0.25906393 -0.3330135 -0.44366106 0.87555116
-0.35520044 0.1997374 0.005942554 0.15755637 -0.036000885 0.1303707 0.45486036 -1.1621323
-1.1907197 0.4084202 -0.30622306 -1.3708038 -1.3830601 0.07250146 0.71061254 0.5736249
0.45641676 0.45325592 -0.23414446 -1.7094107 -1.6853577 0.36755493 0.6295689 -1.4124894
-1.0107211 -0.6477382 -0.44319788 0.5719848 0.7649287 -0.41463614 -1.7468212 0.3794836
0.29878318 -0.9908818 0.8257104 0.36780992 -1.2645794 -0.6212213 -0.044648737 -0.7653855
-1.3708836 0.14545345 0.9806426 0.423032 -1.5118378 0.4695727 -0.6656884 -1.0907127
0.57799786 -1.3551761 0.3176827 -1.61104 -0.3062467 -0.51790607 -0.1042006 0.31892464
0.36445543 0.23987035 -1.5143677 -1.8344731 -0.029901085 0.35057858 0.06616552 -0.22866172
0.46494618 -0.9301335 -0.718993 -0.8553093 0.86373335 -1.5623766 -1.3055453 0.4005568
00000000: 49cf fbbf dfa3 353f 6aa2 28bf 01b5 933e
00000010: 3c8c cc3d 648f 0a3f 8828 d3bf bb8e 003c
00000020: 904e b43d 0d9c a1bf e8fc b6bf f964 ffbe
00000030: 99df 613e 29e8 4dbf 294c 423f 2e91 4bbe
00000040: dbe0 6abe 0dad 79be 8548 c9bf 23b0 653f
00000050: a7f0 153f 8041 573e 5fa0 c6bf f6be b1bf
00000060: 38ad 97bf 8a10 2f3f 4d92 fbbf 48cf 8ebf
00000070: 07a4 843e bf80 aabe 8b27 e3be 1f24 603f
00000080: d5dc b5be f687 4c3e c2b9 c23b 7556 213e
00000090: aa75 13bd e67f 053e 75e3 e83e c0c0 94bf
000000a0: 8169 98bf 741c d13e 45c9 9cbe 8076 afbf
000000b0: 1d08 b1bf a57b 943d b4ea 353f 15d9 123f
000000c0: 75af e93e 2911 e83e 91c3 6fbe f8cd dabf
000000d0: cdb9 d7bf 2930 bc3e 6d2b 213f 74cc b4bf
000000e0: 4f5f 81bf 2cd2 25bf d5ea e2be 996d 123f
000000f0: 5ed2 433f 304b d4be d697 dfbf ad4b c23e
00000100: 1cfa 983e 6eaa 7dbf c261 533f 9551 bc3e
00000110: bddd a1bf 5c08 1fbf 98e1 36bd 4ef0 43bf
00000120: 1d79 afbf c0f1 143e 650b 7b3f a697 d83e
00000130: e783 c1bf d56b f03e 8e6a 2abf 799c 8bbf
00000140: abf7 133f 6976 adbf 4fa7 a23e 8f36 cebf
00000150: 5ecc 9cbe 7e95 04bf 2067 d5bd 174a a33e
00000160: e799 ba3e 93a0 753e cdd6 c1bf 04d0 eabf
00000170: 1ff3 f4bc 097f b33e ca81 873d 4c26 6abe
00000180: 6d0d ee3e 3b1d 6ebf ed0f 38bf 8df5 5abf
00000190: a11d 5d3f f5fb c7bf 1c1c a7bf c815 cd3e

l3.bias f4 [13]
0.022354066 -0.27205718 -0.3422005 -0.0678764 0.0983106 -0.12839359 -0.26000598 -0.31793365
0.24369366 -0.080402054 -0.38903373 -0.27895805 0.3230351
00000000: e01f b73c 144b 8bbe e734 afbe c802 8bbd
00000010: 1157 c93d 9c79 03be 811f 85be 33c8 a2be
00000020: d58a 793e d5a9 a4bd 6e2f c7be 97d3 8ebe
00000030: db64 a53e
